model_1 build
_________________________________________________________________
Layer (type)                 Output Shape              Param #   
=================================================================
dense_1 (Dense)              (None, 5)                 10        
_________________________________________________________________
activation_1 (Activation)    (None, 5)                 0         
_________________________________________________________________
dense_2 (Dense)              (None, 5)                 30        
_________________________________________________________________
activation_2 (Activation)    (None, 5)                 0         
_________________________________________________________________
dense_3 (Dense)              (None, 5)                 30        
_________________________________________________________________
activation_3 (Activation)    (None, 5)                 0         
_________________________________________________________________
dense_4 (Dense)              (None, 5)                 30        
_________________________________________________________________
activation_4 (Activation)    (None, 5)                 0         
_________________________________________________________________
dense_5 (Dense)              (None, 5)                 30        
_________________________________________________________________
activation_5 (Activation)    (None, 5)                 0         
_________________________________________________________________
dense_6 (Dense)              (None, 1)                 6         
=================================================================
Total params: 136
Trainable params: 136
Non-trainable params: 0
_________________________________________________________________
None
model_3 build
_________________________________________________________________
Layer (type)                 Output Shape              Param #   
=================================================================
dense_7 (Dense)              (None, 10)                20        
_________________________________________________________________
activation_6 (Activation)    (None, 10)                0         
_________________________________________________________________
dense_8 (Dense)              (None, 6)                 66        
_________________________________________________________________
activation_7 (Activation)    (None, 6)                 0         
_________________________________________________________________
dense_9 (Dense)              (None, 6)                 42        
_________________________________________________________________
activation_8 (Activation)    (None, 6)                 0         
_________________________________________________________________
dense_10 (Dense)             (None, 1)                 7         
=================================================================
Total params: 135
Trainable params: 135
Non-trainable params: 0
_________________________________________________________________
None
model_2 build
_________________________________________________________________
Layer (type)                 Output Shape              Param #   
=================================================================
dense_11 (Dense)             (None, 45)                90        
_________________________________________________________________
activation_9 (Activation)    (None, 45)                0         
_________________________________________________________________
dense_12 (Dense)             (None, 1)                 46        
=================================================================
Total params: 136
Trainable params: 136
Non-trainable params: 0
_________________________________________________________________
None
Train on 9000 samples, validate on 999 samples
Epoch 1/50

 100/9000 [..............................] - ETA: 56s - loss: 0.1923
3000/9000 [=========>....................] - ETA: 1s - loss: 0.1210 
…
